create_variable_names/lstm_curr_best.pt (torch_old, 32489 bytes, 7 tensors)

weight f4 [65, 8]
1.9804242 -3.0015182 5.8259974 2.083227 -2.00042 0.9066305 1.6104003 1.7825807
2.402332 -3.584549 5.690321 1.9084598 -3.28171 1.2816291 1.9807781 2.1054146
2.6481822 -3.8072486 5.923791 2.3408694 -3.2986178 1.094733 1.3970746 2.054007
-3.20995 -0.9820928 5.045021 -0.33772856 0.18386729 7.6089725 1.290006 4.9998307
0.3711573 -2.6073368 9.42341 3.8099728 -1.9464308 2.1304777 1.2026606 1.1420791
-2.9243782 -0.35206816 4.991929 0.33225048 0.4499198 5.409318 1.8913406 2.6947017
-0.8876114 -0.11369561 0.65870464 1.4972024 -1.2215831 2.1877086 0.3827209 5.1043715
0.26328424 1.5078764 1.3077116 1.7884909 -2.076132 0.21775736 -1.0694741 -0.29438737
1.6785357 -0.24451277 1.210052 0.023633435 -1.03623 -0.34104854 -0.5403518 0.825686
0.6061185 -0.11857218 1.0453458 0.026608493 0.23955214 0.3140908 1.2325933 0.8019738
0.5362203 -2.1066153 -0.69576997 0.64179933 -0.6275604 -2.720164 1.2484607 0.88753384
0.09373415 -0.1306475 -1.9118128 0.53624773 1.02302 0.31762922 0.05046352 -0.94732046
0.6289122 -1.1693084 -2.2773123 1.850421 2.5581691 -1.9092795 0.90388566 0.12090968
-0.29369688 -0.48433238 1.2533978 1.8844042 1.4122988 -0.19680573 0.60399187 0.21873076
-0.6966549 -0.8989346 0.78324604 0.34030995 0.7266067 -1.0052822 -1.2803844 1.0973024
0.88701963 0.91206515 0.3787169 1.0227674 4.364629 0.08369868 1.6999637 0.8177561
0.8372785 -0.7029217 0.19110894 0.49081042 0.9231198 -1.0857127 0.22625361 0.32719105
0.5205475 -0.9582517 1.1576495 1.8906579 1.7827613 0.21217923 -0.17023242 0.3727044
1.5380642 -2.7734537 -1.1093204 1.11132 -0.4427522 -1.068246 -0.93262637 0.91670686
0.99971926 -1.49953 0.622922 0.974143 0.8554823 -0.9343898 2.8465774 -0.17136657
0.5253193 -1.6050386 0.5453587 0.673967 1.5428021 -1.3707225 1.7272339 -0.23859869
-0.17240092 0.7729234 0.6189185 2.1672 2.1852047 -0.8245212 -1.1793865 0.41403386
0.7946453 0.72257656 0.94940096 1.2540032 4.538515 0.03298249 0.6699682 1.0513034
-1.6693883 -0.08948826 0.6779821 2.0052333 2.538265 -0.17539734 -2.2034733 0.32882878
0.11787693 -0.2213583 -0.92613876 1.1760023 -0.6025067 -0.036805518 -2.2878673 2.1505578
0.6812444 0.4931917 0.30463046 1.2286557 2.5194256 -2.0315728 -0.88531655 0.51305974
1.4066569 2.5252736 0.028174125 2.4486372 2.2205763 0.504674 1.029767 -0.69240505
-0.117649324 -0.33259192 0.33786446 1.8173826 2.2720783 -1.45084 -0.58431804 -0.67242706
-0.6148876 0.579991 0.39392635 3.4629118 1.3294265 -1.1423525 -0.89320487 0.22848402
-0.24611017 -0.60733813 1.5540092 1.7556307 2.4677644 -2.0251498 0.51252866 0.35364386
1.3411099 -1.514128 -1.9330143 1.0931236 -1.2026966 -1.3098662 -0.17360775 0.34327278
0.3299032 0.29958722 -0.36106598 1.5718586 3.3582528 0.12885189 1.1064327 -0.10868914
00000000: 8a7e fd3f e018 40c0 926e ba40 9753 0540
00000010: e206 00c0 f018 683f 9921 ce3f 9b2b e43f
00000020: cfbf 1940 4069 65c0 1c17 b640 6948 f43f
00000030: 8907 52c0 6c0c a43f 238a fd3f 1dbf 0640
00000040: d17b 2940 f6a9 73c0 b28f bd40 ced0 1540
00000050: 8e1c 53c0 3620 8c3f 57d3 b23f da74 0340
00000060: d26f 4dc0 6f6a 7bbf d070 a140 c2ea acbe
00000070: b547 3c3e b47c f340 eb1e a53f 9dfe 9f40
00000080: 5408 be3e 9bde 26c0 4ac6 1641 98d6 7340
00000090: a524 f9bf bf59 0840 c8f0 993f a62f 923f
000000a0: 0329 3bc0 4742 b4be e2bd 9f40 bc1c aa3e
000000b0: e35b e63e 2219 ad40 7317 f23f fe75 2c40
000000c0: 803a 63bf 3ed9 e8bd dea0 283f 54a4 bf3f
000000d0: d65c 9cbf 6b03 0c40 fef3 c33e 0357 a340
000000e0: 31cd 863e 1802 c13f 1863 a73f 45ed e43f
000000f0: 59df 04c0 c9fb 5e3e 87e4 88bf f1b9 96be
00000100: 42da d63f 8e61 7abe fce2 9a3f e89a c13c
00000110: 2fa3 84bf ea9d aebe 7f54 0abf 2860 533f
00000120: 952a 1b3f f9d5 f2bd e4cd 853f 0efa d93c
00000130: 284d 753e 82d0 a03e 9ec5 9d3f 284e 4d3f
00000140: bc45 093f c9d2 06c0 fb1d 32bf f64c 243f
00000150: cca7 20bf 2b17 2ec0 8fcd 9f3f 6b35 633f
00000160: b1f7 bf3d 75c8 05be 48b6 f4bf 8847 093f
00000170: 52f2 823f 4ca0 a23e d6b2 4e3d 9883 72bf
00000180: 6400 213f e6ab 95bf 7cbf 11c0 98da ec3f
00000190: 0bb9 2340 4563 f4bf 0d65 673f 7f9f f73d
000001a0: 705f 96be 6afa f7be 576f a03f 2834 f13f
000001b0: 35c6 b43f 7187 49be 369f 1a3f f5fa 5f3e
000001c0: fa57 32bf 9420 66bf d082 483f 1b3d ae3e
000001d0: e602 3a3f 16ad 80bf a3e3 a3bf 6874 8c3f
000001e0: b813 633f 1a7d 693f 2ee7 c13e 0bea 823f
000001f0: 0aab 8b40 376a ab3d 6998 d93f 7758 513f
00000200: e257 563f adf2 33bf 10b2 433e 814b fb3e
00000210: 9451 6c3f a2f8 8abf 07af 673e 9685 a73e
00000220: 9a42 053f fc4f 75bf dc2d 943f 1401 f23f
00000230: 8631 e43f 8345 593e 6851 2ebe 1cd3 be3e
00000240: 4adf c43f 4480 31c0 36fe 8dbf bc3f 8e3f
00000250: 6bb0 e2be 49bc 88bf 9ac0 6ebf 4dad 6a3f
00000260: 9aed 7f3f 99f0 bfbf d177 1f3f 7061 793f
00000270: e300 5b3f 2c34 6fbf 532e 3640 b87a 2fbe
00000280: 537b 063f e871 cdbf a19c 0b3f 1a89 2c3f
00000290: 8a7a c53f d673 afbf 0016 dd3f 3753 74be
000002a0: de89 30be 4fde 453f 7171 1e3f 68b3 0a40
000002b0: 65da 0b40 d213 53bf 23f6 96bf 3ffc d33e
000002c0: e06d 4b3f c7fa 383f f10b 733f 2d83 a03f
000002d0: 843b 9140 a618 073d 0983 2b3f 1c91 863f
000002e0: 84ae d5bf 9f45 b7bd 3c90 2d3f be55 0040
000002f0: ef72 2240 5c9b 33be b505 0dc0 3f5c a83e
00000300: 7669 f13d c0ab 62be 6e17 6dbf 3e87 963f
00000310: e13d 1abf 62c1 16bd 6b6c 12c0 bda2 0940
00000320: 0866 2e3f 9f83 fc3e 86f8 9b3e 9744 9d3f
00000330: 453e 2140 4a05 02c0 1ba4 62bf e257 033f
00000340: 550d b43f 159e 2140 6ccd e63c 79b6 1c40
00000350: ec1d 0e40 5132 013f 68cf 833f 7541 31bf
00000360: 21f2 f0bd 7d49 aabe 92fc ac3e fe9f e83f
00000370: bb69 1140 20b5 b9bf de95 15bf 2e24 2cbf
00000380: 4669 1dbf 4a7a 143f b7b0 c93e 59a0 5d40
00000390: a62a aa3f 9b38 92bf 13a9 64bf b7f7 693e
000003a0: 4e04 7cbe 837a 1bbf c6e9 c63f 82b8 e03f
000003b0: daef 1d40 0e9c 01c0 1435 033f cf10 b53e
000003c0: 7da9 ab3f f2ce c1bf 036d f7bf 79eb 8b3f
000003d0: f6f1 99bf b2a9 a7bf 3bc6 31be 73c1 af3e
000003e0: 12e9 a83e 7f63 993e a4dd b8be aa32 c93f
000003f0: 9ded 5640 c0f1 033e 969f 8d3f 6998 debd

weight_ih f4 [64, 16]
0.027473642 0.7523651 -0.21225357 -0.0027680248 -0.4855747 0.748676 0.41171953 -0.09144051
-1.4705868 0.70158964 1.2083116 -1.6712149 -0.15336002 -1.1453174 -1.287866 2.9189713
0.09836279 0.27978 -0.4732228 0.46434546 -0.0073473235 0.14456794 -0.08835231 0.30667183
3.5706596 1.4913473 0.30885917 -2.0801497 0.87436557 -3.25027 -1.3483526 -2.8344295
0.04633845 0.024697332 -0.06524228 -0.121049084 -0.031916887 -0.10479467 -0.35008642 -0.1187142
0.24280567 -0.16162586 0.23082021 0.2935864 -0.21710189 -0.07929777 0.18120155 0.94281703
-0.29462418 0.5080062 0.36686864 -1.1768351 -1.1067656 0.08173898 0.001767627 -0.58173835
0.30277675 2.7982354 -1.7042707 -0.29056376 -0.4930577 -2.404484 0.42938867 -3.673292
0.056816258 0.33595797 0.08368281 0.3670749 -0.23393837 0.48634088 0.36669636 0.4792048
2.6566398 -2.611923 -1.1699402 4.15006 -0.90945965 0.7376255 0.79331315 -0.91483366
0.3650894 0.03316991 0.2930439 -0.06379353 -0.441529 0.7450623 1.1634142 -0.5638171
-0.5925344 -1.5959998 0.06553354 1.2618604 2.0137897 3.9509804 -0.18540262 4.8181467
0.078292586 1.197567 -0.32946146 0.5117632 -0.15171848 0.531311 -1.3100493 0.5175892
-0.14808382 0.52785146 -2.3255727 -1.5993961 -0.25559092 -2.1845562 0.7609658 1.4836178
-0.10797958 -0.26740298 0.3783142 -0.6616069 -0.56092346 0.10816929 0.3706625 -0.24709764
-0.4870017 0.6889968 0.23869732 -0.29258674 -0.15285997 -0.39195627 0.0074351695 -0.24208106
0.14531758 0.6010345 0.23600021 0.6987238 -0.3363682 0.5280456 0.10063191 0.3497417
-1.4701445 2.6902752 -3.3656085 -2.5370293 0.68933094 0.2663492 1.3603528 -0.3432284
0.23491472 0.20492043 0.24312566 0.26875818 -0.44972274 0.6384758 0.23444544 -0.5413076
-3.3674657 -0.112147614 -2.9140234 -1.2945924 0.032420427 2.830741 -0.7383196 -7.116824
-0.03435222 -0.56553817 -0.07106833 0.33266357 0.76390344 -0.53420633 -0.44899276 0.25185096
1.4442391 -3.2848153 1.2890315 2.6255362 -0.1216452 2.1183078 1.9826163 1.2444981
-0.13735527 -0.4072854 -0.3540692 -1.080038 0.53202194 -0.45025524 -0.09621767 0.045022342
-4.0334272 0.40612 1.2148831 -0.71407044 -6.29826 -0.9796752 0.9026973 -1.1026677
0.016521279 -0.033228368 -0.33916378 -0.096538685 0.44874048 -0.043593638 -0.0061162203 0.26979098
1.6452729 4.252093 -0.5352108 -4.3656125 0.6457362 1.1644789 0.99010617 -1.4086609
0.100302994 0.22637926 -0.26249683 0.6582033 0.049324285 -1.2144121 0.24310666 -0.034845214
-0.18389435 2.2104256 -0.23343234 -2.4655733 -0.39871454 0.39341336 -0.7943627 1.4233721
0.13844354 0.009816648 0.14622241 0.0075269286 -0.09011079 -0.14343815 0.42413837 0.1199781
-1.7718128 1.4298553 1.4104645 -1.915567 0.97431755 -0.11412158 -0.48924056 -0.4128058
0.21766475 0.5497167 -0.45338163 -0.57506526 0.18133797 0.29304826 -0.009839165 0.124051906
-0.9095084 -0.09377924 1.4837576 -0.8779673 4.576035 -3.913123 1.9367332 0.6060403
00000000: 6710 e13c 009b 403f 0059 59be c067 35bb
00000010: 3f9d f8be 3ba9 3f3f e7cc d23e 2945 bbbd
00000020: 303c bcbf 619b 333f f4a9 9a3f 5fea d5bf
00000030: 690a 1dbe c399 92bf cbd8 a4bf 6dd0 3a40
00000040: 6e72 c93d 533f 8f3e 424a f2be b0be ed3e
00000050: d1c1 f0bb 9e09 143e 0ef2 b4bd 1704 9d3e
00000060: b085 6440 78e4 be3f ca22 9e3e 2c21 05c0
00000070: 6cd6 5f3f 6c04 50c0 d196 acbf 4b67 35c0
00000080: 63cd 3d3d 0f52 ca3c bf9d 85bd 95e8 f7bd
00000090: 48bb 02bd 979e d6bd 873e b3be 6e20 f3bd
000000a0: 0da2 783e 4081 25be 225c 6c3e f550 963e
000000b0: f54f 5ebe df66 a2bd e68c 393e 755c 713f
000000c0: fbd8 96be b20c 023f 35d6 bb3e 88a2 96bf
000000d0: 7faa 8dbf c466 a73d b8af e73a ceec 14bf
000000e0: 8e05 9b3e 4a16 3340 8b25 dabf c6c4 94be
000000f0: 0f72 fcbe 11e3 19c0 d5d8 db3e 3717 6bc0
00000100: 2ab8 683d af02 ac3e e561 ab3d 3ef1 bb3e
00000110: 8a8d 6fbe ac01 f93e a0bf bb3e 555a f53e
00000120: 6306 2a40 bf29 27c0 9ac0 95bf 4bcd 8440
00000130: 59d2 68bf 06d5 3c3f 9216 4b3f 8a32 6abf
00000140: ffec ba3e 2cdd 073d da09 963e 2fa6 82bd
00000150: 1710 e2be 67bc 3e3f c2ea 943f 5156 10bf
00000160: 56b0 17bf b949 ccbf 7336 863d a484 a13f
00000170: eee1 0040 dddc 7c40 2fda 3dbe 422e 9a40
00000180: dd57 a03d e049 993f 2caf a8be ea02 033f
00000190: 175c 1bbe ff03 083f b2af a7bf ba80 043f
000001a0: 49a3 17be 4621 073f 2fd6 14c0 03b9 ccbf
000001b0: d0dc 82be c5cf 0bc0 a8ce 423f 30e7 bd3f
000001c0: 6624 ddbd 0be9 88be 66b2 c13e 125f 29bf
000001d0: ae98 0fbf dc87 dd3d 7ac7 bd3e 2a07 7dbe
000001e0: 4958 f9be 1862 303f 126d 743e eecd 95be
000001f0: 5387 1cbe 7eae c8be b9a2 f33b 19e4 77be
00000200: 22ce 143e 66dd 193f 0aaa 713e 90df 323f
00000210: 7438 acbe ff2d 073f 1a18 ce3d 5811 b33e
00000220: b22d bcbf 782d 2c40 2166 57c0 b05e 22c0
00000230: fe77 303f ec5e 883e 0a20 ae3f a2bb afbe
00000240: 7c8d 703e a9d6 513e eff5 783e ac9a 893e
00000250: 0f42 e6be 2673 233f 7712 703e 2393 0abf
00000260: 8f84 57c0 a6ad e5bd 5c7f 3ac0 34b5 a5bf
00000270: 48cb 043d dc2a 3540 8302 3dbf 06bd e3c0
00000280: eab4 0cbd 1cc7 10bf 468c 91bd e152 aa3e
00000290: 2d8f 433f bfc1 08bf 61e2 e5be 9cf2 803e
000002a0: d4dc b83f 6a3a 52c0 fcfe a43f c908 2840
000002b0: 1e21 f9bd 5b92 0740 5fc6 fd3f b74b 9f3f
000002c0: dca6 0cbe b687 d0be 8f48 b5be af3e 8abf
000002d0: 9732 083f db87 e6be c50d c5bd 5969 383d
000002e0: d611 81c0 f6ee cf3e 4a81 9b3f 52cd 36bf
000002f0: 598b c9c0 fecb 7abf 2c17 673f 3724 8dbf
00000300: a257 873c 781a 08bd e0a6 adbe 13b6 c5bd
00000310: 50c1 e53e 3e8f 32bd 936a c8bb 0b22 8a3e
00000320: 4d98 d23f 2511 8840 9303 09bf 19b3 8bc0
00000330: f84e 253f a50d 953f 9977 7d3f 004f b4bf
00000340: a86b cd3d f7cf 673e fc65 86be 0380 283f
00000350: 4308 4a3d db71 9bbf f4f0 783e dbb9 0ebd
00000360: cd4e 3cbe 9d77 0d40 e308 6fbe f4cb 1dc0
00000370: 5024 ccbe 7a6d c93e 5b5b 4bbf 0f31 b63f
00000380: 25c4 0d3e 02d6 203c 54bb 153e 74a4 f63b
00000390: 028c b8bd 73e1 12be aa28 d93e 14b7 f53d
000003a0: c3ca e2bf 8005 b73f 1a8a b43f 4d31 f5bf
000003b0: e06c 793f 93b8 e9bd bd7d fabe 485b d3be
000003c0: 82e3 5e3e 3cba 0c3f a321 e8be 7a37 13bf
000003d0: a9b0 393e 6c0a 963e 7334 21bc ed0e fe3d
000003e0: 8bd5 68bf 550f c0bd c5eb bd3f 77c2 60bf
000003f0: e16e 9240 9b70 7ac0 e0e6 f73f 7525 1b3f

weight_hh f4 [64, 16]
1.1446395 3.6639354 -0.3550213 -1.7166578 -1.6251922 2.4781265 -5.132216 -0.48283562
0.07481899 -1.4762791 0.054230396 -2.7188437 -0.20243089 2.253591 0.10253219 1.7215834
2.815891 -0.18061115 0.11604809 2.1453035 0.8946891 -2.1071582 0.69021785 2.8383799
-0.77545685 3.5570881 0.28701866 -1.6181084 -6.2162695 0.8304267 0.67046267 0.2887687
-0.39087185 -0.6854101 -1.1417334 -0.33712092 0.0491717 -0.5540586 0.18259293 0.8952987
0.07667232 0.3932475 0.037190616 -0.101750575 -0.18899584 0.61635023 0.085952535 -0.11640934
-0.6036938 0.88782287 -0.07862527 0.13378505 0.0047225934 0.95795995 -0.561586 -10.255299
0.18718053 -1.092572 -1.1806836 2.0809429 -3.7482264 -1.0293788 -2.0343409 1.5942671
1.2698824 -0.76244587 0.1426258 -1.4298664 -1.4706395 -3.7336092 2.440926 13.909121
2.5416138 -1.5329198 -1.5389612 -6.2867007 -0.22405893 0.5821005 2.6718285 2.5930264
1.6249366 2.0350647 0.08212991 2.1426406 0.29813322 -1.7752322 1.8101282 6.394564
-1.0973425 -2.269642 -0.18356535 0.4693312 -2.6416833 1.3890973 2.5001056 -1.2984861
2.707975 2.3168187 0.32981595 3.9630854 0.26973855 0.023240503 1.6516038 -0.5008009
0.9998383 1.3987997 0.69032407 -0.56492805 -7.1312466 -3.1554105 -1.577304 -0.600098
0.69772583 1.5528568 -0.33927622 -0.14725812 0.4147129 1.7146952 -0.3072213 -0.8057709
-0.9921145 1.5089375 -2.0273027 -0.73386925 3.1119971 0.44755927 0.889573 -0.5400882
0.2434825 -2.0824363 -0.41648942 0.034684118 -6.610176 1.804944 2.3485239 1.0245527
-1.2951707 -5.597558 1.8791255 -0.5101555 0.41989636 1.9990106 -2.0275884 -1.0796279
0.09553241 -3.128327 -0.18719873 2.3082526 -0.54917485 -1.9309942 -1.361646 20.378683
1.2444212 2.22377 3.0562317 1.933294 -4.678758 1.5838054 -0.57639045 1.7525932
-2.650434 2.7997947 -0.23469636 -1.3481693 -1.7641361 -2.3923566 -3.2436204 0.27796367
-0.33165726 -0.89484113 0.3655115 1.3854634 5.686576 2.5911725 1.9105121 2.8114412
-1.9135826 1.4822406 -0.2503862 -1.6294559 1.5442973 0.23385473 1.8968828 -6.198926
-2.0224075 2.5693297 -2.1041353 1.2597952 -4.1188827 -0.34891638 4.410235 -3.0524511
4.79375 0.3996566 0.9274904 -3.6136332 -0.07633031 0.1419384 1.6251587 6.9988136
-2.8102546 -2.4848392 0.44750267 -3.5473297 0.04093379 1.394471 9.441073 -2.1105185
-0.08036771 2.47515 0.581408 0.5625209 -1.3159906 -1.3731303 1.0537934 3.7247515
-0.13281377 -2.9678056 -0.95582294 0.5804034 0.71496147 -1.3217816 -1.0106544 -0.6056715
1.4266012 0.26502445 -0.4871646 1.2415918 -0.9232935 -0.93779576 0.11273135 0.7271056
-0.3698469 -1.7223828 0.6520925 0.1907795 -1.0176986 0.6298099 -2.1852992 -0.28847784
1.5622255 -1.3615851 0.056385864 1.1384907 1.0500644 2.3203669 2.4371576 3.091015
-2.1617494 9.294279 -1.1238524 -2.2856433 4.2585235 4.5560393 5.895222 0.033294197
00000000: 8c83 923f eb7d 6a40 5ac5 b5be 71bb dbbf
00000010: 4c06 d0bf a099 1e40 1d3b a4c0 3b36 f7be
00000020: b33a 993d b7f6 bcbf b120 5e3d 8901 2ec0
00000030: 0b4a 4fbe d63a 1040 66fc d13d d85c dc3f
00000040: 8f37 3440 21f2 38be 9faa ed3d a74c 0940
00000050: 580a 653f aedb 06c0 1eb2 303f 04a8 3540
00000060: 5784 46bf 55a7 6340 1cf4 923e 2d1e cfbf
00000070: aeeb c6c0 d896 543f 71a3 2b3f 7ed9 933e
00000080: 5b20 c8be 0977 2fbf 5224 92bf 1d9b acbe
00000090: 4468 493d c9d6 0dbf a4f9 3a3e 4c32 653f
000000a0: 6106 9d3d bc57 c93e 3055 183d 9b62 d0bd
000000b0: 2088 41be 21c9 1d3f e207 b03d 0568 eebd
000000c0: ad8b 1abf 5c48 633f 4906 a1bd f3fe 083e
000000d0: fcbf 9a3b dd3c 753f 1ac4 0fbf b415 24c1
000000e0: 41ac 3f3e 66d9 8bbf a420 97bf 2b2e 0540
000000f0: f1e2 6fc0 afc2 83bf a432 02c0 f210 cc3f
00000100: 828b a23f a72f 43bf 7f0c 123e dd05 b7bf
00000110: ea3d bcbf 74f3 6ec0 2238 1c40 c28b 5e41
00000120: cda9 2240 b736 c4bf aefc c4bf a72c c9c0
00000130: b46f 65be 8a04 153f 3dff 2a40 25f4 2540
00000140: ecfd cf3f 803e 0240 ba33 a83d 0621 0940
00000150: eba4 983e cf3a e3bf 48b2 e73f 45a0 cc40
00000160: b875 8cbf d141 11c0 8ef8 3bbe 2e4c f03e
00000170: 5711 29c0 f1cd b13f bb01 2040 cb34 a6bf
00000180: 764f 2d40 c246 1440 a3dd a83e 31a3 7d40
00000190: 2c1b 8a3e de62 be3c c167 d33f 7d34 00bf
000001a0: 67f5 7f3f de0b b33f 14b9 303f 209f 10bf
000001b0: 2c33 e4c0 3ff2 49c0 19e5 c9bf 06a0 19bf
000001c0: 299e 323f 03c4 c63f 9db5 adbe d5ca 16be
000001d0: 4055 d43e 227b db3f 1c4c 9dbe 0047 4ebf
000001e0: 37fb 7dbf dd24 c13f 54bf 01c0 dbde 3bbf
000001f0: f62a 4740 7d26 e53e 0ebb 633f 3843 0abf
00000200: 7a53 793e a346 05c0 1a3e d5be ef10 0e3d
00000210: 9086 d3c0 6808 e73f 374e 1640 8b24 833f
00000220: 27c8 a5bf 321f b3c0 2f87 f03f 8d99 02bf
00000230: a8fc d63e 94df ff3f 02c4 01c0 3f31 8abf
00000240: 7fa6 c33d 8236 48c0 06b1 3fbe 69ba 1340
00000250: b996 0cbf d12a f7bf 6b4a aebf 8b07 a341
00000260: 3249 9f3f 3f52 0e40 4d99 4340 2e76 f73f
00000270: 63b8 95c0 23ba ca3f 538e 13bf f954 e03f
00000280: b6a0 29c0 d62f 3340 3e54 70be d090 acbf
00000290: 36cf e1bf 5f1c 19c0 7a97 4fc0 4151 8e3e
000002a0: fbce a9be 4f14 65bf 5324 bb3e dd56 b13f
000002b0: 6ef8 b540 c5d5 2540 a98b f43f a7ee 3340
000002c0: 46f0 f4bf 0fba bd3f 9f32 80be 0392 d0bf
000002d0: 89ab c53f 9d77 6f3e 0ecd f23f 9a5d c6c0
000002e0: 206f 01c0 e66f 2440 27aa 06c0 f840 a13f
000002f0: e3cd 83c0 2ba5 b2be a520 8d40 5c5b 43c0
00000300: 6666 9940 ca9f cc3e 0370 6d3f c445 67c0
00000310: 1153 9cbd 4d58 113e 3305 d03f 48f6 df40
00000320: 36db 33c0 9b07 1fc0 121f e53e 7307 63c0
00000330: 31aa 273d 077e b23f a30e 1741 bc12 07c0
00000340: d397 a4bd dc68 1e40 28d7 143f 5f01 103f
00000350: 6172 a8bf bcc2 afbf b4e2 863f 5462 6e40
00000360: 5500 08be 87f0 3dc0 d0b0 74bf 5195 143f
00000370: b707 373f 2430 a9bf 205d 81bf 4a0d 1bbf
00000380: de9a b63f 49b1 873e a36d f9be 7bec 9e3f
00000390: f65c 6cbf 6213 70bf b2df e63d 9823 3a3f
000003a0: 935c bdbe 0a77 dcbf 89ef 263f b45b 433e
000003b0: f343 82bf 393b 213f f1db 0bc0 5eb3 93be
000003c0: 01f7 c73f 6c48 aebf ddf4 663d 10ba 913f
000003d0: 8368 863f e480 1440 64fa 1b40 31d3 4540
000003e0: 1a5a 0ac0 5eb5 1441 65da 8fbf fb47 12c0
000003f0: d345 8840 13cb 9140 a9a5 bc40 7f5f 083d

bias_ih f4 [64]
-0.18177295 1.2457753 -1.2772394 0.82383674 3.6468058 3.735076 4.5065002 -3.821453
2.6933374 1.7183508 0.43493578 2.111805 0.35942608 4.9992223 0.25538072 2.4973605
-1.7037395 -1.4965703 2.5384185 -0.7378347 1.7585307 -0.955742 1.2776877 -0.6552543
-0.53516835 -0.2577401 -1.3215767 -2.82245 -3.996331 3.265185 -1.7597576 -1.9778402
0.5376108 0.9767079 -2.5996308 -1.2869664 -1.9785836 1.2303972 -0.56908005 3.090642
1.6733284 2.0283544 2.3219912 -1.0386677 1.8001536 2.2841687 0.46372247 1.1113548
3.4228268 4.071854 0.55326617 1.1797324 5.3021693 3.6307285 2.9800212 -2.0479436
5.4064837 -1.5141644 2.3836546 2.5114777 -1.8043505 4.487263 -1.3611706 1.2583219
00000000: b022 3abe 9175 9f3f 957c a3bf f7e6 523f
00000010: 4465 6940 7c0b 6f40 4035 9040 b092 74c0
00000020: a45f 2c40 ebf2 db3f e7af de3e d027 0740
00000030: b206 b83e a1f9 9f40 43c1 823e c1d4 1f40
00000040: 2314 dabf 9e8f bfbf 7375 2240 bce2 3cbf
00000050: 8917 e13f 82ab 74bf 458b a33f bfbe 27bf
00000060: cb00 09bf 83f6 83be 6d29 a9bf 05a3 34c0
00000070: e3c3 7fc0 cbf8 5040 bd3f e1bf de29 fdbf
00000080: dda0 093f 8709 7a3f 5a60 26c0 51bb a4bf
00000090: 3a42 fdbf a87d 9d3f 3baf 11bf 14cd 4540
000000a0: a02f d63f 8fd0 0140 819b 1440 10f3 84bf
000000b0: 6f6b e63f d22f 1240 086d ed3e e040 8e3f
000000c0: 980f 5b40 a14c 8240 daa2 0d3f 7901 973f
000000d0: 5fab a940 db5d 6840 abb8 3e40 8211 03c0
000000e0: ea01 ad40 24d0 c1bf cc8d 1840 0dbc 2040
000000f0: f5f4 e6bf a997 8f40 d73a aebf b110 a13f

bias_hh f4 [64]
0.0027212144 1.0356072 -1.4860843 0.72087294 3.7595959 3.944337 4.5987873 -4.0198627
2.7125802 1.6997558 0.5748109 2.0293 0.6409745 5.112821 0.17762232 2.364309
-1.5621876 -1.6442621 2.612532 -0.43048316 1.6451966 -0.7845166 1.2604088 -0.5914387
-0.124669455 -0.20325013 -1.2071463 -2.7826803 -4.1220603 3.3897789 -1.3609618 -1.9361026
0.712248 1.1123124 -2.5479932 -1.3402475 -1.8477734 1.2821889 -0.63441926 2.850408
1.5817635 1.6052259 2.4268034 -1.0138907 1.5640942 2.1118345 0.3704437 0.80976254
3.561071 4.050147 0.18935412 1.0110773 5.284265 3.303425 2.8038018 -1.5771296
5.6038237 -1.5246518 2.5957127 2.2865498 -1.5296952 4.4359746 -1.4598409 1.3947715
00000000: 6756 323b c78e 843f 0338 bebf 218b 383f
00000010: 389d 7040 0470 7c40 4429 9340 b7a2 80c0
00000020: ea9a 2d40 9991 d93f cf26 133f 0de0 0140
00000030: e816 243f 3b9c a340 a0e2 353e d750 1740
00000040: c3f5 c7bf 2e77 d2bf b933 2740 4a68 dcbe
00000050: cd95 d23f 14d6 48bf 1355 a13f 8768 17bf
00000060: b352 ffbd cd20 50be c583 9abf 6f17 32c0
00000070: ebe7 83c0 23f2 5840 ff33 aebf 36d2 f7bf
00000080: e355 363f 4160 8e3f 5212 23c0 3b8d abbf
00000090: d783 ecbf c41e a43f 4d69 22bf 166d 3640
000000a0: 3a77 ca3f 0b78 cd3f bf50 1b40 2cc7 81bf
000000b0: 3d34 c83f 4c28 0740 ccaa bd3e 994c 4f3f
000000c0: 96e8 6340 ce9a 8140 0ce6 413e fb6a 813f
000000d0: b318 a940 516b 5340 7d71 3340 62df c9bf
000000e0: 8652 b340 ca27 c3bf 2820 2640 d556 1240
000000f0: 0dcd c3bf 81f3 8d40 11dc babf df87 b23f

weight f4 [65, 16]
-5.257331 -4.3992305 -8.04881 0.9917778 1.0472869 -2.477953 1.9110283 -81.02965
0.24472813 -19.067379 -1.2126698 6.644786 -4.5819283 -0.22198051 -17.0774 -0.0028052216
-4.672042 -4.1700025 -7.5260897 0.6897465 1.409107 -1.87979 2.4482527 -32.511757
0.47985166 -14.880306 -1.3764963 6.6281343 -3.795235 -1.3259939 -14.069389 -0.91626155
-4.21517 -4.1034627 -7.9136677 0.5579477 1.8221674 -2.333784 2.418583 -31.465355
0.29474235 -14.775679 -0.9285755 6.9226985 -3.6136405 -1.1582087 -13.372199 -0.8973672
-4.663869 -4.2133584 -7.643986 0.9758887 1.6669532 -2.1283643 2.1407566 -34.615543
-0.039452277 -16.293758 -1.2553701 7.1746936 -3.8816354 -1.3036531 -14.105957 -0.7279596
-3.997572 -4.4202332 -7.8509507 1.3453914 -0.87973386 -0.22889978 1.459357 -81.40578
0.5843537 -19.500744 -2.4770758 6.6016903 -5.7080297 -0.8490129 -18.993773 0.43638778
-5.4065995 -4.4612627 -7.930105 1.0239038 0.9922091 -1.4643031 2.026513 -55.304317
-0.29154372 -18.884441 -0.9963761 7.003399 -4.865365 -0.74725103 -16.627949 0.029971398
-5.883796 -4.3683405 -8.092877 0.5311786 1.6056262 -1.346986 2.173072 -22.770836
-0.91102105 -18.071083 -1.4673312 7.8355236 -4.60658 -0.13107935 -14.912304 -0.83841395
-3.1615243 -3.3367746 -4.7451787 0.96690613 1.8254478 -1.8906996 1.4094218 -8.609476
-1.6235176 -7.6088524 -1.7051334 5.7050385 -3.202534 -3.1645143 -11.053493 -2.5954235
-3.2752767 -2.3525038 -5.8820295 1.3546659 1.3707639 -1.2361052 1.6270746 -7.4448957
-1.7915975 -6.868721 -1.6992244 5.1858797 -2.4605083 -3.3023984 -9.616015 -2.9149246
-2.7499192 -2.5321865 -4.828571 0.789522 1.5731452 -1.4098483 1.4316028 -8.279875
-1.4859196 -7.4473557 -2.1849792 5.045359 -4.1252823 -3.4823368 -10.462704 -2.8456886
-4.5707088 -4.1932306 -7.2987456 0.82244915 0.18182707 -1.0381262 0.20090021 -170.91785
-0.347155 -18.42469 -1.0040321 4.9882774 -4.427175 -4.2067847 -14.664308 -1.0994812
-4.9363413 -4.322954 -7.634023 0.81946516 0.58338934 -1.5204196 -0.15359443 -139.80096
-0.35001606 -20.112284 -2.0459356 6.3344345 -4.2961264 -2.6969059 -15.992458 0.3399067
-4.7604055 -4.211907 -7.7726607 1.0135878 0.765396 -1.7847002 1.1817057 -113.31995
-0.63880163 -18.189098 -1.9743243 6.1805754 -4.36009 -2.6638741 -15.475474 0.40328383
-3.861926 -4.578825 -7.6424317 0.8200495 1.2071719 -2.500563 0.8729295 -171.08708
-1.4857483 -19.434198 -1.5161256 6.8280096 -4.5682673 -2.052285 -15.28202 0.11816096
-3.8704686 -3.2771606 -6.7320795 0.98360515 0.57811886 -2.1859407 0.78680086 -157.0153
-0.6579248 -17.777262 -0.5277367 5.5332456 -4.742802 -3.498273 -13.774712 -2.2409656
-5.2441654 -5.0912943 -7.5378523 1.430117 -0.27984613 -0.40548483 -0.12924631 -155.21698
-0.72703433 -20.636139 -2.313233 6.3674383 -4.9859505 -2.755639 -16.219915 0.15506344
00000000: 0e3c a8c0 7fc6 8cc0 edc7 00c1 26e5 7d3f
00000010: 7f0d 863f c896 1ec0 939c f43f 2e0f a2c2
00000020: 039a 7a3e fe89 98c1 c438 9bbf 16a2 d440
00000030: 289f 92c0 dc4e 63be 849e 88c1 cfd7 37bb
00000040: 5e81 95c0 a970 85c0 bad5 f0c0 3a93 303f
00000050: 9e5d b43f f59c f0bf 2cb0 1c40 0a0c 02c2
00000060: 1eaf f53e bc15 6ec1 0831 b0bf ad19 d440
00000070: 21e5 72c0 2bba a9bf 381c 61c1 1e90 6abf
00000080: ace2 86c0 914f 83c0 c43c fdc0 a9d5 0e3f
00000090: c83c e93f b85c 15c0 10ca 1a40 0cb9 fbc1
000000a0: 78e8 963e 2e69 6cc1 20b7 6dbf bf86 dd40
000000b0: e345 67c0 2f40 94bf 87f4 55c1 dbb9 65bf
000000c0: 6a3e 95c0 d5d3 86c0 899b f4c0 d8d3 793f
000000d0: b95e d53f 1f37 08c0 2802 0940 5176 0ac2
000000e0: b698 21bd 9e59 82c1 f8af a0bf 1797 e540
000000f0: b76c 78c0 1bde a6bf 00b2 61c1 8f5b 3abf
00000100: 38d8 7fc0 8d72 8dc0 fd3a fbc0 c935 ac3f
00000110: 3d36 61bf b464 6abe 36cc ba3f c2cf a2c2
00000120: 3498 153f 8601 9cc1 6988 1ec0 0c41 d340
00000130: 2ea8 b6c0 e958 59bf 3ff3 97c1 386e df3e
00000140: dd02 adc0 aac2 8ec0 6cc3 fdc0 480f 833f
00000150: 6a01 7e3f 496e bbbf 64b2 0140 9f37 5dc2
00000160: 3845 95be 5613 97c1 8112 7fbf d81b e040
00000170: 12b1 9bc0 d84b 3fbf 0a06 85c1 9486 f53c
00000180: 0f48 bcc0 72c9 8bc0 6d7c 01c1 52fb 073f
00000190: 2985 cd3f 0a6a acbf 9d13 0b40 ac2a b6c1
000001a0: ad38 69bf 9491 90c1 82d1 bbbf 9cbc fa40
000001b0: 1a69 93c0 aa39 06be cc98 6ec1 4ca2 56bf
000001c0: 6a56 4ac0 b78d 55c0 81d8 97c0 2987 773f
000001d0: 46a8 e93f 7202 f2bf ef67 b43f 6ac0 09c1
000001e0: 6dcf cfbf b87b f3c0 d041 dabf ad8f b640
000001f0: 51f6 4cc0 6787 4ac0 1bdb 30c1 6b1b 26c0
00000200: 229e 51c0 6c8f 16c0 9639 bcc0 b165 ad3f
00000210: 3175 af3f b238 9ebf fb43 d03f 963c eec0
00000220: 1153 e5bf 90cc dbc0 2f80 d9bf baf2 a540
00000230: f878 1dc0 7f5a 53c0 33db 19c1 208e 3ac0
00000240: adfe 2fc0 580f 22c0 a783 9ac0 1d1e 4a3f
00000250: d25c c93f e975 b4bf c33e b73f 5e7a 04c1
00000260: 9d32 bebf bd50 eec0 b3d6 0bc0 9573 a140
00000270: 5002 84c0 9bde 5ec0 3c67 27c1 c31f 36c0
00000280: 3f43 92c0 f22e 86c0 538f e9c0 078c 523f
00000290: e030 3a3e 52e1 84bf c9b8 4d3e f8ea 2ac3
000002a0: 4dbe b1be c465 93c1 2084 80bf f89f 9f40
000002b0: 6bab 8dc0 fb9d 86c0 01a1 6ac1 cdbb 8cbf
000002c0: 82f6 9dc0 a455 8ac0 eb49 f4c0 78c8 513f
000002d0: 0159 153f 1c9d c2bf dc47 1dbe 0ccd 0bc3
000002e0: 4e35 b3be f5e5 a0c1 9cf0 02c0 b0b3 ca40
000002f0: de79 89c0 1b9a 2cc0 1ce1 7fc1 4008 ae3e
00000300: 3e55 98c0 f1c7 86c0 a3b9 f8c0 3fbd 813f
00000310: fef0 433f 0e71 e4bf 2242 973f d0a3 e2c2
00000320: 8188 23bf 4683 91c1 a9b6 fcbf 46c7 c540
00000330: db85 8bc0 ea7c 2ac0 8b9b 77c1 387b ce3e
00000340: cc29 77c0 bc85 92c0 cd8e f4c0 c4ee 513f
00000350: 9c84 9a3f 3909 20c0 4f78 5f3f 4b16 2bc3
00000360: 002d bebf 3d79 9bc1 6710 c2bf 0e7f da40
00000370: 3f2f 92c0 a358 03c0 2783 74c1 60fe f13d
00000380: c2b5 77c0 00bd 51c0 326d d7c0 8ccd 7b3f
00000390: 99ff 133f 74e6 0bc0 c86b 493f eb03 1dc3
000003a0: c26d 28bf d537 8ec1 c119 07bf 5910 b140
000003b0: 09c5 97c0 b4e3 5fc0 3865 5cc1 fb6b 0fc0
000003c0: 34d0 a7c0 e2eb a2c0 1636 f1c0 130e b73f
000003d0: fe47 8fbe b59b cfbe 2559 04be 8c37 1bc3
000003e0: ec1e 3abf d016 a5c1 020c 14c0 0ec2 cb40
000003f0: e88c 9fc0 645c 30c0 63c2 81c1 f3c8 1e3e

bias f4 [65]
-15.444395 -13.213339 -13.117864 -14.278483 -16.66545 -17.923779 -18.738026 -31.175283
-31.89551 -32.658737 -12.479999 -13.147345 -11.985519 -12.046696 -12.441462 -13.092964
-13.022755 -13.450301 -12.376159 -16.148191 -13.263444 -12.10669 -12.406682 -12.300199
-12.676118 -12.312884 -18.07353 -12.63309 -11.4783325 -12.173403 -12.606597 -13.49204
-13.811632 -12.021779 -13.26435 -21.646044 -10.552544 -11.872254 -12.245094 -11.355612
-10.92074 -12.104376 -11.979144 -11.735943 -13.320476 -11.193388 -14.294818 -12.65345
-11.82704 -12.313391 -11.636945 -12.2252655 -11.506024 -14.406733 -11.493685 -10.747791
-11.410828 -11.5215025 -12.25407 -12.214156 -13.012256 -12.496023 -14.573394 -11.158642
-32.98558
00000000: 3e1c 77c1 d669 53c1 c5e2 51c1 ab74 64c1
00000010: d752 85c1 e663 8fc1 7ae7 95c1 fb66 f9c1
00000020: 012a ffc1 8ca2 02c2 13ae 47c1 865b 52c1
00000030: b0c4 3fc1 44bf 40c1 3a10 47c1 c87c 51c1
00000040: 345d 50c1 6f34 57c1 bf04 46c1 7f2f 81c1
00000050: 1137 54c1 01b5 41c1 c581 46c1 9dcd 44c1
00000060: 61d1 4ac1 9301 45c1 9796 90c1 2321 4ac1
00000070: 40a7 37c1 42c6 42c1 9fb4 49c1 65df 57c1
00000080: 72fc 5cc1 3559 40c1 c73a 54c1 192b adc1
00000090: 38d7 28c1 c1f4 3dc1 e8eb 43c1 96b0 35c1
000000a0: 5abb 2ec1 86ab 41c1 93aa 3fc1 6cc6 3bc1
000000b0: ab20 55c1 1e18 33c1 93b7 64c1 8874 4ac1
000000c0: 8e3b 3dc1 a603 45c1 ed30 3ac1 b09a 43c1
000000d0: ad18 38c1 fa81 66c1 22e6 37c1 f4f6 2bc1
000000e0: c092 36c1 1358 38c1 ac10 44c1 2f6d 43c1
000000f0: 3332 50c1 b6ef 47c1 9f2c 69c1 cc89 32c1
00000100: 3cf1 03c2
