create_variable_names/lstm_first.pt (torch_old, 53545 bytes, 7 tensors)

weight f4 [65, 8]
0	0x3fc31fb8	1.5244055
1	0x3fe74fb3	1.8071197
2	0x3e08641e	0.13319442
3	0x40463428	3.0969334
4	0x3fb56290	1.4170704
5	0x4037de5a	2.8729463
6	0x400e1b54	2.220418
7	0x3ef513b5	0.47866598
8	0x4084edd4	4.1540318
9	0xbe54e17c	-0.2078914
10	0x3e9df866	0.30853575
11	0x4064f4ab	3.5774333
12	0xbf568c32	-0.8380767
13	0x409091fe	4.5178213
14	0x40aac7a6	5.336871
15	0x40667537	3.6009042
16	0x40072840	2.1118317
17	0xbd91a8cd	-0.07112274
18	0xbef0f2a5	-0.47060123
19	0x403c6ece	2.944263
20	0x3ee31c4e	0.44357532
21	0x40869bc4	4.2065144
22	0x4060a108	3.5098286
23	0x3fdf6e00	1.7455444
24	0x3d244739	0.040106986
25	0xbd9006a3	-0.07032516
26	0xbfb99bcc	-1.450067
27	0x408981e0	4.297104
28	0x4007d41a	2.1223207
29	0x3ea94b14	0.33065093
30	0x3fdb25f3	1.7120956
31	0x405f9cbc	3.4939413
32	0x402e43b7	2.722883
33	0x3e066173	0.13123111
34	0xbfc68bad	-1.5511376
35	0x409420fa	4.6290255
36	0x3f706f87	0.9392018
37	0x4089602c	4.2929897
38	0x408077a3	4.014604
39	0x4026bbfa	2.6052232
40	0x3fc872e2	1.566006
41	0xbf843748	-1.032937
42	0x3f1fcce6	0.62422025
43	0x3ff38320	1.9024391
44	0x3ea0f1db	0.3143452
45	0x3feaeeb7	1.83541
46	0x3fec9019	1.8481475
47	0x3f6110bc	0.8791616
48	0x3ec76cd4	0.38950217
49	0xc0080293	-2.125157
50	0x3fac209a	1.3447449
51	0x3f2071fd	0.6267393
52	0xbf1029df	-0.5631389
53	0xbd5220b4	-0.05130072
54	0x3ec02653	0.3752924
55	0x3fd719c7	1.6804742
56	0x3ef0407d	0.469242
57	0x3f54650e	0.829667
58	0x3fb75ed5	1.4325815
59	0x3ff8ae2b	1.9428152
60	0x3f12393f	0.571186
61	0x3f3e4cb5	0.74335796
62	0x3eb95c2c	0.36203134
63	0x3ed544bf	0.41654012
64	0xbdc9efcd	-0.098601915
65	0x3f009cf2	0.5023948
66	0xbec356bf	-0.3815212
67	0x40150e08	2.3289814
68	0x401e5d5e	2.4744487
69	0x3f882725	1.0636946
70	0x3e290d1a	0.16508904
71	0x3fa0bad9	1.2557021
72	0xbf8c36bf	-1.0954207
73	0x3f702977	0.9381327
74	0xbd95ce01	-0.07314683
75	0xbee176e7	-0.44036028
76	0xbfd59afe	-1.6687925
77	0xbf971632	-1.1803648
78	0xbd99305f	-0.07479929
79	0xbf4533b3	-0.7703201
80	0xbe298d75	-0.16557868
81	0x3f23c9e0	0.6397991
82	0x3f83dffc	1.030273
83	0x3e4825c6	0.1954566
84	0x3fc15f81	1.510727
85	0x4011d6bd	2.2787316
86	0xbeb769b9	-0.35822847
87	0x3ec6a25a	0.3879574
88	0x3e0ea630	0.13930583
89	0x3f8248f2	1.0178511
90	0x3f83d86d	1.0300423
91	0x3d505d17	0.050870027
92	0x3fc08f65	1.504376
93	0x3f8d1cf6	1.1024463
94	0x400c79b6	2.1949286
95	0x3de3a196	0.111148044
96	0xbfe46445	-1.78431
97	0x4022b3a9	2.5422156
98	0x3fea48bf	1.830345
99	0x3ee09204	0.438614
100	0x402f6fe9	2.7412055
101	0x3f4587d4	0.7716038
102	0x3ff399f7	1.9031361
103	0xbe111cee	-0.14171192
104	0x3e3ca597	0.18422543
105	0x3d5cfdae	0.053952865
106	0x3f2d208a	0.67627776
107	0x3fa2073a	1.2658455
108	0x3f869a6b	1.0515875
109	0x3de6cbc9	0.11269338
110	0x402c0d21	2.6883013
111	0x3fb189e5	1.3870207
112	0xbfa50a83	-1.2893833
113	0x3f01d171	0.5071021
114	0x3e928706	0.2861864
115	0x3fa2aa6f	1.2708262
116	0xbdc495dc	-0.09598896
117	0x3fe3d1cd	1.7798401
118	0xbe0832c1	-0.13300611
119	0x4048d4d1	3.1379893
120	0xbfecb2c4	-1.8492055
121	0x3e8498d6	0.25897855
122	0x4003ccb8	2.05937
123	0x3dc8ca6e	0.098042354
124	0x4010087a	2.2505174
125	0xbf6f4fab	-0.9348094
126	0x4025b519	2.5891783
127	0x400df98e	2.2183566
128	0xc0060dc8	-2.0945911
129	0x3f245ff4	0.6420891
130	0xbf0b7bb9	-0.5448566
131	0x3f917ace	1.1365602
132	0x3fc9e7dc	1.5773883
133	0x400049ec	2.0045118
134	0x4005b9ca	2.0894647
135	0x3f99a4cd	1.2003418
136	0xbfc54237	-1.5410832
137	0x3f7de906	0.9918369
138	0x3f50821e	0.81448543
139	0x3f3c1a71	0.73477846
140	0x3e5fa83b	0.21841519
141	0xbc341920	-0.010992318
142	0x3f83b344	1.0289083
143	0x3f9c04da	1.218898
144	0xbed6307a	-0.4183386
145	0xbea3f2e8	-0.3202126
146	0x3f30cf8d	0.690667
147	0x3f34a5ff	0.7056579
148	0x40235c91	2.5525248
149	0x3ff01e5d	1.8759266
150	0xc002e1a2	-2.0450215
151	0x3ffb487f	1.9631499
152	0xc01abe01	-2.417847
153	0xc0603cb8	-3.503706
154	0xc015d62b	-2.3411968
155	0x3f6fe1d5	0.9370397
156	0x404d9e38	3.212782
157	0xc081cc4a	-4.0561876
158	0x3e8f4150	0.27979517
159	0x40153514	2.3313646
160	0xbf0e7dd9	-0.5566078
161	0xbf882066	-1.0634887
162	0x3e76af44	0.24090296
163	0x3f82c181	1.0215303
164	0x3fd800a4	1.6875196
165	0x3ef8a500	0.48563385
166	0x3ed46ccf	0.41489264
167	0x3e8b713e	0.27234834
168	0xbf4bf5cd	-0.7967194
169	0xbf4f8021	-0.81054884
170	0xbe58735e	-0.21137759
171	0x3e442610	0.19155145
172	0x3fa6404a	1.298837
173	0xbf020dc7	-0.5080227
174	0x3fe3969c	1.7780337
175	0x3fe0e4c3	1.7569813
176	0xbf582747	-0.8443493
177	0xbec75ef7	-0.3893964
178	0xbe073e1c	-0.13207287
179	0x3f89608d	1.073259
180	0x400569dd	2.0845864
181	0xbf7237d2	-0.94616425
182	0x403b590e	2.9273105
183	0x402f3cb0	2.738079
184	0xbf321c0f	-0.69574064
185	0x3fa1f6a1	1.265339
186	0xbe031547	-0.12801085
187	0x3d46f794	0.048575953
188	0x3f9eed33	1.2416137
189	0x3f6b4e21	0.9191609
190	0x3f1455de	0.5794352
191	0x3fae8485	1.3634192
192	0x3f887926	1.0661972
193	0x3ded413e	0.115847096
194	0x402b7cff	2.6795042
195	0xbe83f482	-0.25772482
196	0x4075aa0a	3.8385034
197	0x3e896106	0.26831836
198	0xbf28b3d3	-0.6589939
199	0x3f8615f9	1.0475456
200	0x3e539613	0.20662718
201	0x3ef91e3e	0.48655885
202	0x3f9c9bc0	1.2235031
203	0xbaec2457	-0.0018016201
204	0x3f09fa9a	0.5389801
205	0x3f724ef1	0.94651705
206	0x3ff02ef5	1.876433
207	0x3eb917ee	0.3615107
208	0x3fb233bf	1.3922042
209	0x40638c1e	3.555427
210	0x409ff737	4.9989276
211	0x3f1ae454	0.6050465
212	0x3fdb2de2	1.7123377
213	0xbf4800a2	-0.78125966
214	0x401d2bc1	2.4557955
215	0x3b6170f2	0.0034399596
216	0xbdbac774	-0.09120074
217	0x3cc2add1	0.023764523
218	0xbf32bf5d	-0.6982325
219	0x3e0e8fd7	0.13922058
220	0x4016d7a3	2.3569114
221	0xbd3106d5	-0.043219406
222	0x3f7ba616	0.983003
223	0x3f624f29	0.8840204
224	0xbf6da644	-0.92831826
225	0x3fb0a852	1.3801367
226	0x3ee753c3	0.45181093
227	0x3fe12a09	1.7590953
228	0x4003ca21	2.059212
229	0x3fbdfb86	1.4842384
230	0x3f72df79	0.9487224
231	0xbe8d70f5	-0.27625242
232	0xbf1aa051	-0.60400873
233	0x3f41b96f	0.75673574
234	0x3f3aabb6	0.7291826
235	0x3ea8bce3	0.3295661
236	0x3fac9829	1.3483936
237	0x3f89d177	1.0767049
238	0x3fa50693	1.2892631
239	0xbf3245c7	-0.6963772
240	0x3f865558	1.0494795
241	0xbe51dc9c	-0.20494312
242	0x3f6ae15a	0.9175011
243	0x3dd60965	0.104510106
244	0x4004cdcf	2.0750616
245	0x40211be6	2.5173278
246	0x3f75c332	0.9600097
247	0x3fa6b164	1.3022885
248	0xbe521cb3	-0.2051876
249	0xc01e124f	-2.4698675
250	0x3e0a5207	0.13507853
251	0x3f80c804	1.006104
252	0x4075d173	3.8409088
253	0x3fd16e0d	1.636171
254	0x403473a0	2.8195572
255	0x3f51189c	0.81678176

weight_ih f4 [128, 16]
0	0xbe8fb8e7	-0.28070757
1	0x3eea09a7	0.4571049
2	0xbe14f3e2	-0.14546159
3	0xbdca9ad6	-0.09892814
4	0xbe8c0ff5	-0.27355924
5	0xbe6a1634	-0.22860032
6	0xbe308484	-0.1723805
7	0xbec63bf9	-0.3871763
8	0xbd22a0e9	-0.039704237
9	0xbed29488	-0.41128945
10	0x40233aef	2.550472
11	0xbd96c86e	-0.07362448
12	0xbe18dbd9	-0.14927615
13	0x3f89d2ee	1.0767496
14	0x3f8ccbb8	1.099967
15	0x3fd3054a	1.6485989
16	0xbd8c630a	-0.06854828
17	0x3df22d2f	0.11825024
18	0xbd632eff	-0.05546474
19	0xbeb72dc8	-0.35777116
20	0x3d450d25	0.04810824
21	0xbc733d57	-0.0148461675
22	0x3ee4a557	0.44657394
23	0x3c10531a	0.008808875
24	0xbeb549a7	-0.35407755
25	0xbf06d695	-0.52671176
26	0xbfb91152	-1.4458411
27	0xbe59e6c6	-0.2127944
28	0x3fd8b08d	1.6928879
29	0xbf9cf547	-1.2262353
30	0xc0121591	-2.2825663
31	0xbf9510ce	-1.1645753
32	0xbe61f608	-0.2206651
33	0xbe21f55d	-0.15816255
34	0x3e112c3a	0.14177027
35	0xbef16772	-0.47149235
36	0xbf272eed	-0.6530598
37	0xbf3ac00a	-0.7294928
38	0xbf0beec6	-0.54661214
39	0xbeb5ac36	-0.3548295
40	0x3fc5795e	1.5427663
41	0xbfd58e85	-1.6684119
42	0x4048c068	3.1367435
43	0xc025ed74	-2.592618
44	0x3f97532f	1.1822261
45	0xc05c1bc7	-3.4391954
46	0x3fe37c3e	1.7772291
47	0x3e687992	0.22702625
48	0xbe9ad0b6	-0.3023736
49	0x3ed1759a	0.40910035
50	0xbebc45a3	-0.3677188
51	0xbde65d63	-0.11248281
52	0xbe0a6ca4	-0.13518006
53	0xbc369721	-0.01114443
54	0x3e8eee62	0.27916247
55	0xbf1fcbbe	-0.6242026
56	0x4031bd75	2.7771885
57	0x3e7aebf8	0.24504077
58	0xc0695b60	-3.646202
59	0xbf84698d	-1.0344712
60	0x3e727aba	0.23679629
61	0xbf030fd8	-0.5119605
62	0xc00b5724	-2.1771936
63	0x3ef81c03	0.4845887
64	0x3ed324ed	0.4123911
65	0xbf0243df	-0.50884813
66	0x3e0a1538	0.13484657
67	0x3ecc7004	0.3992921
68	0xbf0742c6	-0.52836263
69	0x3ea5d4bf	0.32388875
70	0xbedd283e	-0.43194765
71	0x3e49ad17	0.19694935
72	0x3f95b5b3	1.1696075
73	0x3ff2dae3	1.8973049
74	0x4000a6b3	2.0101745
75	0x3fe9fff2	1.8281233
76	0xbf446da1	-0.7672978
77	0x3ff1722e	1.886297
78	0xbf05c630	-0.52255535
79	0x3fbcfb2e	1.4764154
80	0xbcf83ace	-0.030301478
81	0xbecba5f9	-0.39775065
82	0x3f1f4353	0.62212104
83	0x3d7a11a4	0.06105198
84	0xbed6f0bf	-0.4198055
85	0xbeac8d33	-0.33701476
86	0x3e67b9e0	0.226295
87	0x3e5d2a97	0.21598278
88	0x3f73af10	0.95189
89	0xbf89a81e	-1.075443
90	0x3e46bdca	0.19408336
91	0xbff076f3	-1.87863
92	0x3ea39de6	0.31956404
93	0xc003d98a	-2.0601525
94	0x405d48c8	3.4575672
95	0xbf85f5b9	-1.0465614
96	0xbf81f5f9	-1.015319
97	0xbdba212b	-0.090883575
98	0x3ec68404	0.38772595
99	0xbbcabd96	-0.006187151
100	0x3e81515a	0.2525738
101	0x3e8e669a	0.27812654
102	0xbe76875d	-0.24075074
103	0xbc955280	-0.018227816
104	0x3f7c59f2	0.98574746
105	0x3e12bd2d	0.14329977
106	0xc06df748	-3.7182178
107	0xbf2da37a	-0.6782757
108	0x40726762	3.78756
109	0xbeba0e80	-0.36339188
110	0xbed93d44	-0.42429554
111	0x3f9cbc6f	1.2245005
112	0x3dbd52c0	0.09244299
113	0xbd2be941	-0.041970495
114	0x3e9c830a	0.30568725
115	0x3dd80abe	0.10548924
116	0xbe44bd89	-0.19212927
117	0x3ec4219c	0.38306892
118	0x3ea92804	0.33038342
119	0xbe429064	-0.19000393
120	0xbfc28d28	-1.5199327
121	0x403803b0	2.875225
122	0x3ecc45dd	0.3989705
123	0xc034b789	-2.823702
124	0x400a5b17	2.1618097
125	0x3fe88233	1.8164734
126	0xc07b9c7b	-3.9314258
127	0xbfa8e917	-1.3196133
128	0x3f3c483e	0.7354773
129	0x3e9c8caa	0.30576068
130	0xbd557af9	-0.05211923
131	0x3df45666	0.11930542
132	0xbd6abfa6	-0.057311676
133	0xbea52562	-0.32255083
134	0x3e9448cf	0.289618
135	0xbe5a3fdb	-0.21313421
136	0x3e2bee51	0.16790129
137	0x400492ec	2.0714674
138	0x3f4bb37b	0.7957074
139	0x3e95a633	0.29228362
140	0xbf81170c	-1.0085158
141	0x3f10a662	0.5650388
142	0xc0035f19	-2.0526793
143	0x3f990a2a	1.1956227
144	0xbb8dc480	-0.004326403
145	0x3e909f68	0.28246617
146	0xbee0a54f	-0.4387612
147	0xbe40bb78	-0.18821514
148	0xbcec5915	-0.028851071
149	0x3e8c85fe	0.27445978
150	0x3d90dad9	0.07072992
151	0xbddbfdad	-0.10741744
152	0x4014e0c3	2.3262184
153	0x3fb78fb3	1.4340729
154	0x3fbd65e1	1.4796716
155	0xbf43db5e	-0.765066
156	0xbfc1ce2d	-1.5141045
157	0x3f452b61	0.77019316
158	0x4070d6bf	3.763107
159	0x4015d5f0	2.3411827
160	0xbdc538a6	-0.096299455
161	0x3da2c415	0.07947556
162	0xbe296a0f	-0.16544364
163	0xbd514948	-0.051095277
164	0x3e8b1f1d	0.27172175
165	0x3ea6cd1e	0.32578367
166	0xbd53b6cf	-0.05168801
167	0xbd6c9b64	-0.05776538
168	0xc04a6786	-3.1625686
169	0xbf61ccb8	-0.88203
170	0xc05618ae	-3.3452563
171	0x40184e23	2.379769
172	0xbf9513bc	-1.1646647
173	0xbfaba82e	-1.3410699
174	0x40556e4f	3.3348577
175	0xbf432afa	-0.7623745
176	0x3eb77342	0.35830122
177	0xbc060844	-0.008180682
178	0xbf27904c	-0.65454555
179	0xbe240e3d	-0.16021056
180	0x3c00dccd	0.007865143
181	0xbe9adaa3	-0.30244932
182	0xbe9ff21b	-0.312394
183	0xbe951a88	-0.29121804
184	0xbecd669d	-0.4011735
185	0xbd655086	-0.055984996
186	0xc08a5fd3	-4.3241973
187	0x4022cd6b	2.5437877
188	0xbf8c707a	-1.0971825
189	0x3e6fe01a	0.23425332
190	0x404978de	3.1480021
191	0xc00e64f5	-2.224912
192	0xbe1149e1	-0.14188339
193	0xbebdb179	-0.37049463
194	0xbe55c9b1	-0.2087772
195	0x3f01fd15	0.507768
196	0xbe55780c	-0.20846575
197	0xbe41baed	-0.18918963
198	0xbf17e9ac	-0.5934093
199	0x3d1c5cb4	0.038174346
200	0x3fc087c3	1.5041431
201	0x3e3040e1	0.1721225
202	0x3f2029da	0.6256386
203	0x400ede96	2.2323356
204	0xc07c8b24	-3.9459925
205	0xbf4a607a	-0.7905346
206	0xbf70d51a	-0.9407517
207	0xc011c9a6	-2.2779326
208	0x3e2a5984	0.1663571
209	0xbf01dbd7	-0.50726074
210	0x3e675cdd	0.22594018
211	0xbea20acb	-0.3164886
212	0xbd60b408	-0.05485919
213	0xbebabaad	-0.36470547
214	0x3e9ba66b	0.30400404
215	0xbe9d4ac3	-0.307211
216	0x40836447	4.105991
217	0xbf5b564b	-0.8567855
218	0xc0019f9b	-2.0253665
219	0x4039ebf1	2.9050257
220	0xbee39301	-0.44448093
221	0x40348038	2.8203259
222	0xc0375c27	-2.8649995
223	0xbfbb8a63	-1.4651607
224	0xbeacbaa6	-0.3373615
225	0xbeecaa2c	-0.4622358
226	0xbf2a0b4e	-0.664235
227	0x3e96c5cf	0.2944779
228	0xbf170358	-0.5898948
229	0x3ec96db6	0.39341515
230	0xbf0d8000	-0.5527344
231	0x3f1a43eb	0.60259885
232	0xbe36661b	-0.17812388
233	0xbecf34ea	-0.40470058
234	0x404cd697	3.2005975
235	0xbe82f3ad	-0.25576535
236	0x3f475dc3	0.77877444
237	0x4043cb13	3.0592697
238	0x40224e64	2.5360346
239	0x3fd1e1b5	1.6397005
240	0xbc29868e	-0.010347022
241	0x3e91168b	0.2833751
242	0x3d0224df	0.031773444
243	0x3ecfc754	0.40581763
244	0xbe3ce4ea	-0.18446699
245	0xbe16d092	-0.14728001
246	0x3bf0414c	0.0073320027
247	0x3e1373ec	0.1439969
248	0xc04ca457	-3.1975305
249	0x3fe81b70	1.8133373
250	0xc0491c52	-3.1423535
251	0xbfd6c829	-1.6779834
252	0x3e54087a	0.20706359
253	0x40582fb0	3.3779106
254	0x40c7c075	6.2422433
255	0xbfeeff69	-1.8671695

weight_hh f4 [128, 32]
0	0x3f510570	0.8164892
1	0x3fca760c	1.5817275
2	0xbf68f6b0	-0.91001415
3	0x3ead9258	0.33900714
4	0xbfab74e3	-1.3395046
5	0xbfc57ceb	-1.5428747
6	0xbf1bf502	-0.6092073
7	0x3e9cef7b	0.3065146
8	0x3e2ef31e	0.1708493
9	0x3f98c7a9	1.1935931
10	0xbf4da251	-0.803258
11	0x3fa58d6e	1.2933786
12	0x401cf9fd	2.452758
13	0x3ef17b28	0.47164273
14	0x3f11c2a7	0.5693764
15	0x3f13f1a2	0.5779058
16	0x3e44a462	0.19203332
17	0x3f7bef59	0.9841209
18	0xbd142754	-0.03617032
19	0xbfaeaf3c	-1.3647227
20	0x3f9780da	1.1836197
21	0x3f745c0c	0.9545295
22	0xbfa4b122	-1.2866557
23	0xbd0f8365	-0.035037417
24	0x3d0d0c17	0.034435358
25	0x3fe2eddb	1.7728838
26	0xbec3fe04	-0.38279736
27	0x3e88e8fb	0.2674025
28	0xbe2b0395	-0.16700585
29	0xbfa9f074	-1.3276505
30	0x3f799bf5	0.97503597
31	0x3f7f08ba	0.9962269
32	0xbc903dda	-0.017607618
33	0xbf0ff2c3	-0.562298
34	0xc0365fba	-2.8495927
35	0xbfe0ff64	-1.7577939
36	0x3fbd1642	1.4772418
37	0x3f5458f9	0.8294826
38	0x3fb47769	1.4098941
39	0xbf1e8791	-0.6192561
40	0xc05304a1	-3.2971575
41	0x4007278e	2.1117892
42	0xbfdf6516	-1.7452724
43	0x403d6526	2.9592986
44	0xbf429888	-0.76013994
45	0xc013ef27	-2.3114717
46	0x4026a9f7	2.6041238
47	0x4014fa51	2.327778
48	0xc07cefb5	-3.9521306
49	0x40062d62	2.09652
50	0xbff19d6c	-1.8876166
51	0x4072dcd2	3.7947278
52	0xbfb0f034	-1.3823304
53	0x3df0413d	0.11731193
54	0x40968da8	4.704792
55	0xc0056ee0	-2.0848923
56	0xbfa8a968	-1.3176699
57	0x408f6a0a	4.481694
58	0xbe5de38a	-0.2166883
59	0xc03c778a	-2.944796
60	0x3e92c8d1	0.28668836
61	0x3f89f23f	1.0777053
62	0x4094808c	4.6406918
63	0x403b28a0	2.9243546
64	0x3ebbb8dd	0.36664477
65	0x40138c05	2.305421
66	0x3fae1e5d	1.3603016
67	0x3f44811f	0.76759523
68	0xc00c343a	-2.1906877
69	0x3fce3e02	1.6112673
70	0xbf856d81	-1.0424043
71	0x405c1dbb	3.4393146
72	0xbef0ac57	-0.47006485
73	0xc0543e6f	-3.3163106
74	0x3f147f3a	0.5800663
75	0xbf2ccad8	-0.67497015
76	0x40095d2b	2.1463115
77	0x3ff2af76	1.8959796
78	0xbf405be2	-0.751402
79	0x3ff63455	1.923472
80	0x3f5fe1aa	0.8745371
81	0xc02f806e	-2.7422137
82	0x3f78ff8c	0.97264934
83	0x3e2d6fb0	0.16937137
84	0xc09d6f9d	-4.9198747
85	0x3f6bb2e1	0.9206982
86	0x400dc7e3	2.215325
87	0xbfa11739	-1.2585212
88	0x3f4f167a	0.8089367
89	0xbcdf0b0a	-0.027226944
90	0xbda8ae55	-0.08236376
91	0x40123e54	2.2850542
92	0xbfc1c75e	-1.5138967
93	0x4020a3b9	2.5099928
94	0x4071ea82	3.7799382
95	0xc0862ad0	-4.192726
96	0xbe819c6c	-0.25314653
97	0x400e5a43	2.2242591
98	0x3dc71ae5	0.097219266
99	0x3e16a7cd	0.14712448
100	0xbfa55f85	-1.2919775
101	0xbf983c12	-1.1893332
102	0x40016466	2.0217528
103	0x3dddc3a2	0.108283296
104	0xc0716234	-3.7716188
105	0xbf8a82c5	-1.0821158
106	0xbf81467b	-1.0099634
107	0xbfbe6867	-1.4875611
108	0xc05e4257	-3.472799
109	0x3fc62874	1.5481095
110	0xbf3c38f6	-0.73524415
111	0xbfc85980	-1.5652313
112	0x3f5610e1	0.83619505
113	0xbfdc3420	-1.7203407
114	0xbf3e541a	-0.7434708
115	0xbeede61f	-0.4646463
116	0xc0235c65	-2.5525143
117	0xbeaa6492	-0.33279854
118	0xbcc14e61	-0.023596944
119	0xc084d3b1	-4.150841
120	0xbe590fa3	-0.21197371
121	0xbf23163a	-0.6370579
122	0xbda7e6e4	-0.08198336
123	0xbfc4fb05	-1.5389105
124	0xc01a0588	-2.4065876
125	0xbeb85c07	-0.3600771
126	0xbfd1a551	-1.6378576
127	0x3f8a9a65	1.0828367
128	0xbe2042df	-0.1565051
129	0x3f22b5a0	0.6355839
130	0xbe75b168	-0.23993456
131	0xc0322d41	-2.784012
132	0x40801291	4.0022664
133	0xbfb091c2	-1.3794482
134	0xbf8121d0	-1.0088444
135	0xbe8a21d3	-0.2697893
136	0x3d0b2448	0.033970147
137	0xbe3c5d85	-0.1839505
138	0x4004b17b	2.0733325
139	0xc02da23d	-2.7130272
140	0x3f097076	0.53687227
141	0x400c6b41	2.1940463
142	0xbfeb2988	-1.8372049
143	0xc0341134	-2.81355
144	0xc067b3c3	-3.6203468
145	0xc0147d6b	-2.320155
146	0xbe9d3b0e	-0.30709118
147	0xbecba39f	-0.3977327
148	0x40bc1280	5.8772583
149	0xbed58405	-0.41702285
150	0x3e8cc097	0.27490684
151	0xc09a954a	-4.830724
152	0xbf96d55a	-1.178386
153	0x3d5db46d	0.054127146
154	0xbeb31bc7	-0.3498213
155	0x3e8cd981	0.27509692
156	0xbfe0bfdd	-1.7558552
157	0x3f17076a	0.5899569
158	0xbfc0dc57	-1.5067242
159	0x3ef5ad39	0.4798372
160	0xbe01b0ab	-0.1266505
161	0x405a8486	3.4143386
162	0x400b0940	2.1724396
163	0x3f4d6007	0.8022465
164	0x3ed32333	0.41237792
165	0xbf67249f	-0.90290254
166	0xbfa7d251	-1.3111058
167	0x3ee0fd2b	0.43943152
168	0xc092e4cf	-4.5904307
169	0xbd345921	-0.044030312
170	0xbfe2024c	-1.7656951
171	0xbfa01a70	-1.2508068
172	0x3e1adf20	0.15124178
173	0xbf4419c1	-0.766018
174	0xbfbb4b75	-1.4632403
175	0xbf42e508	-0.76130724
176	0xbca59154	-0.0202109
177	0xbe004488	-0.12526143
178	0x3f5ee0d2	0.870618
179	0x409f0de9	4.970448
180	0xbfe8830d	-1.8164994
181	0xbe419076	-0.18902764
182	0xbf79ae29	-0.9753137
183	0x3d34a32c	0.044100925
184	0xbf0ea06a	-0.5571352
185	0x3fb2ac52	1.3958838
186	0xc059f92c	-3.4058332
187	0x3f645c72	0.8920356
188	0x3f88b600	1.0680542
189	0x3e8589d2	0.2608171
190	0xc01b75e7	-2.4290712
191	0x3fb7f013	1.437014
192	0x3eb5a7d4	0.35479605
193	0x3f75213a	0.95753825
194	0x3fc6b308	1.5523386
195	0x3ffc85c2	1.972832
196	0x3fada01b	1.3564485
197	0xbff4fd9b	-1.9139894
198	0xc01de6ca	-2.4672112
199	0x3eaac429	0.33352783
200	0x4010df64	2.2636347
201	0x3cfcba10	0.03085044
202	0xbe0795da	-0.13240758
203	0x3f9d76c5	1.230187
204	0xc08392ad	-4.1116548
205	0xc06c1705	-3.688905
206	0x3dd6cab2	0.1048788
207	0x3f464226	0.77444685
208	0x3f826c13	1.0189232
209	0x3f8ad598	1.0846434
210	0xbfd6b88c	-1.6775069
211	0xc009f455	-2.1555378
212	0x3fd20dd1	1.6410466
213	0x3f5afdb6	0.8554338
214	0xc07a77cd	-3.913562
215	0xbd03fbf1	-0.032222692
216	0x3ee173e7	0.4403374
217	0xc0ba79c2	-5.827363
218	0x3e5f77bb	0.21823017
219	0xc04a5def	-3.1619833
220	0x3fa46bd8	1.2845411
221	0x3e1239cc	0.1427986
222	0x3eeea0d5	0.4660708
223	0x3ff0d2fd	1.8814389
224	0xbe40714e	-0.18793222
225	0xbedda48d	-0.43289605
226	0x3e3e6e6f	0.18596815
227	0x3f0d6df2	0.5524589
228	0xc00c7537	-2.1946542
229	0xbfaec1d9	-1.3652908
230	0xbf8b9f38	-1.0907965
231	0xc00d3c58	-2.206808
232	0x3f77e966	0.9684051
233	0x3f7135e3	0.9422285
234	0xbf03f519	-0.51545864
235	0x3ea9a2f7	0.33132145
236	0x3fcec16a	1.6152775
237	0x401fd528	2.497385
238	0x3e8590a9	0.2608693
239	0xbeba2f5a	-0.3636425
240	0xc07b4bf7	-3.9265115
241	0x3f8b7045	1.0893637
242	0x40122ac1	2.2838595
243	0xc0a0cce4	-5.025011
244	0x3f36b2c3	0.7136652
245	0x3fd1d8be	1.639427
246	0x3f26a65f	0.6509761
247	0x3fcc3f9f	1.5956916
248	0x3fe2074c	1.7658477
249	0xbfad8e43	-1.355904
250	0x3eee3422	0.4652415
251	0x401ae78c	2.4203825
252	0xbf8f4b4f	-1.1194857
253	0x3f54233f	0.8286628
254	0xc0a41878	-5.127987
255	0xbf262c49	-0.64911324

bias_ih f4 [128]
0	0xbfdd1a3a	-1.7273629
1	0x3f10177b	0.5628583
2	0x402ca026	2.6972747
3	0x3f62f40a	0.88653624
4	0x408031fe	4.0061026
5	0x408dd49c	4.4322033
6	0x4011ef00	2.2802124
7	0x406e8947	3.7271287
8	0x4053877a	3.3051438
9	0x40094540	2.1448517
10	0x3fce0dc9	1.6097957
11	0xbe867fa3	-0.26269254
12	0x400d549d	2.2082894
13	0x3f24656d	0.64217263
14	0x406125d4	3.5179338
15	0x3f929001	1.1450197
16	0x3f2f97cb	0.6859099
17	0x3ffe501b	1.9868196
18	0x4081ca6e	4.0559607
19	0xbf8372c6	-1.0269401
20	0x3ea5fd9b	0.32420048
21	0x40889b55	4.2689614
22	0xbfbe53b6	-1.4869297
23	0x400b1ccd	2.1736329
24	0x3fce564f	1.6120089
25	0x40053ccf	2.0818365
26	0x3f0a8a85	0.54117614
27	0x4081cd97	4.0563464
28	0x3f9c3d42	1.2206194
29	0x4009e328	2.1544895
30	0x3f980c84	1.187882
31	0xbf3d17c4	-0.7386439
32	0x3f085ef9	0.53269917
33	0xbf0ef776	-0.55846345
34	0xbf299bb2	-0.662532
35	0xc037a30c	-2.8693266
36	0xbee9c3ea	-0.45657283
37	0xbf657659	-0.8963371
38	0xc039a672	-2.900784
39	0x3e09bf56	0.13451895
40	0xc0746ad4	-3.8190203
41	0xc0329b8e	-2.7907443
42	0xbf2155bc	-0.63021445
43	0xc017b17b	-2.3702075
44	0xbfb00d5f	-1.375408
45	0xbf51341b	-0.8172013
46	0x3fd152b4	1.6353364
47	0x3f4f6b52	0.8102313
48	0xbf5da353	-0.8657734
49	0xbfb8942a	-1.4420216
50	0x4033e840	2.8110504
51	0xbfc92fb6	-1.5717685
52	0xbe472f2e	-0.19451591
53	0x3fed9204	1.8560185
54	0xbf283928	-0.65712214
55	0xc014dd82	-2.3260198
56	0xc02e414d	-2.7227356
57	0xbf78d3ff	-0.9719848
58	0xbef46285	-0.47731414
59	0xbd3010b9	-0.042984698
60	0xbfa2bc84	-1.271378
61	0xbfed8820	-1.8557167
62	0xc02bf2dd	-2.6866982
63	0xc03c93dc	-2.9465246
64	0xbff726bc	-1.9308696
65	0x3fac9dff	1.3485717
66	0x4016b1cc	2.3546019
67	0x400fb5c5	2.2454693
68	0xc0084779	-2.1293623
69	0x3f8f960a	1.1217663
70	0xbf066c65	-0.52509147
71	0x3ffe9949	1.9890529
72	0x3ed969f4	0.42463648
73	0xbe3ecea1	-0.1863351
74	0x3ed1bba8	0.40963483
75	0xbd727480	-0.059193134
76	0xbfbd2ff3	-1.4780258
77	0x3f903c1b	1.1268343
78	0x3f286bcc	0.65789485
79	0x3e0a6eb5	0.13518794
80	0x405be31e	3.4357371
81	0x3fb8c166	1.443402
82	0xc03fba6b	-2.995753
83	0xbfab121a	-1.3364899
84	0x40331650	2.7982368
85	0xc02713e1	-2.6105883
86	0x40268cb7	2.6023386
87	0xbf789337	-0.9709963
88	0xc014821c	-2.3204412
89	0x3f68546f	0.90753835
90	0x3f11f380	0.57012177
91	0xbfbc03e6	-1.468869
92	0x3e64b6b3	0.22335319
93	0x3f9b78db	1.2146257
94	0xbe80d3b6	-0.25161523
95	0xc034597c	-2.8179617
96	0x3fbc8a35	1.4729677
97	0xbed59e3b	-0.41722283
98	0x3f79ce58	0.9758048
99	0xbe2ab68b	-0.16671197
100	0x4076356f	3.8470113
101	0x3ff7d77a	1.9362633
102	0xbe59a508	-0.2125436
103	0x405179cf	3.2730596
104	0x3f43c76b	0.7647616
105	0x4003b5a9	2.0579627
106	0xbf4fb658	-0.8113761
107	0x3eb4b036	0.35290688
108	0x3dfcd7af	0.12345826
109	0x3f64451e	0.89167964
110	0x4035c74f	2.8402898
111	0x406df34f	3.7179754
112	0x400319e8	2.0484562
113	0x3fe36eda	1.7768204
114	0x406913a9	3.641825
115	0xbfcc9455	-1.5982767
116	0xbfab67f4	-1.3391099
117	0x40556927	3.334543
118	0x3d6ece02	0.058301933
119	0x401aa4ed	2.4163163
120	0x3e9292ac	0.28627527
121	0x3d5e438f	0.054263648
122	0x3e4bcb0d	0.19901676
123	0x3f607856	0.8768362
124	0x404d4aea	3.2076974
125	0x3f747dbb	0.9550435
126	0x3f3fe012	0.7495128
127	0xbfeb5892	-1.8386405

bias_hh f4 [128]
0	0xbfda9712	-1.7077353
1	0x3f101189	0.56276757
2	0x401bd250	2.4347115
3	0x3f4b0aae	0.7931317
4	0x4073ddcc	3.8104124
5	0x408bb03a	4.365262
6	0x4024194c	2.564044
7	0x406e7d8d	3.726413
8	0x40587a24	3.3824549
9	0x401322ca	2.2989984
10	0x3fc7840f	1.5587176
11	0xbe84c7a7	-0.25933573
12	0x4013c9a3	2.309182
13	0x3f38cdeb	0.72189206
14	0x4066e334	3.6076174
15	0x3f64da4a	0.8939558
16	0x3f2a0c05	0.6642459
17	0x3ffb2c86	1.9622962
18	0x4084d62f	4.1511455
19	0xbf86b082	-1.0522616
20	0x3e936629	0.2878888
21	0x407cbaff	3.9489133
22	0xbfe19100	-1.7622375
23	0x4006299d	2.0962899
24	0x3fc73c4f	1.556528
25	0x400052e0	2.0050583
26	0x3f4c88a1	0.7989598
27	0x40858cc2	4.1734324
28	0x3f9e8cda	1.2386734
29	0x400c0292	2.1876569
30	0x3f95506a	1.1665165
31	0xbef64526	-0.4809963
32	0x3f359783	0.70934314
33	0xbef9cc86	-0.48788851
34	0xbf317790	-0.6932306
35	0xc032827c	-2.7892141
36	0xbeb627f8	-0.3557737
37	0xbf3eb145	-0.7448924
38	0xc034f5d0	-2.8275032
39	0xbceed99f	-0.029156504
40	0xc074fb36	-3.8278327
41	0xc0309690	-2.7591896
42	0xbf13d29c	-0.5774324
43	0xc01d535d	-2.458213
44	0xbfa0d1a5	-1.2563978
45	0xbf628362	-0.88481724
46	0x3fd16e0a	1.6361706
47	0x3f4e2112	0.8051921
48	0xbf53823d	-0.826206
49	0xbfbee3ba	-1.4913247
50	0x402f57e0	2.7397385
51	0xbfd71ea0	-1.6806221
52	0xbe9e3625	-0.30900684
53	0x3ffbd565	1.9674498
54	0xbee36456	-0.44412488
55	0xc012b274	-2.292142
56	0xc0287041	-2.6318514
57	0xbf429ea1	-0.760233
58	0xbed702ee	-0.41994423
59	0xbd9ec033	-0.07751503
60	0xbf79fc35	-0.9765046
61	0xbfe8efb2	-1.8198149
62	0xc02b7307	-2.6788957
63	0xc033c542	-2.8089147
64	0xbffb15af	-1.9615992
65	0x3fadeda5	1.3588148
66	0x400b8178	2.1797771
67	0x40050f12	2.0790448
68	0xc00a8de9	-2.1649115
69	0x3f740e6e	0.9533452
70	0xbee5e5c6	-0.44901866
71	0x400883f3	2.1330535
72	0x3eb2ce54	0.3492304
73	0xbee889ad	-0.45417538
74	0x3e59f8a8	0.21286261
75	0xbd2bb556	-0.041920982
76	0xbfc30c53	-1.5238136
77	0x3f86b865	1.0525023
78	0x3f7336d8	0.9500556
79	0x3e720632	0.23635176
80	0x40602552	3.5022779
81	0x3fc777e4	1.5583463
82	0xc03295c9	-2.7903922
83	0xbfa41b46	-1.2820823
84	0x40312656	2.7679648
85	0xc0329d0b	-2.7908351
86	0x40277f95	2.617162
87	0xbf724197	-0.9463133
88	0xc01ccca4	-2.4499903
89	0x3f92c767	1.1467103
90	0x3ebec3c8	0.37258744
91	0xbfa6f8fa	-1.3044732
92	0x3eb6dcb5	0.3571526
93	0x3f8cb222	1.0991862
94	0xbec5835a	-0.38576776
95	0xc02d04c4	-2.7034159
96	0x3fbc13b7	1.4693516
97	0xbeac45bd	-0.33646956
98	0x3f36b6f3	0.7137291
99	0xbe26369b	-0.16231768
100	0x407b1081	3.9228823
101	0x4003e2c9	2.0607169
102	0xbeac5e1e	-0.33665556
103	0x40484575	3.1292393
104	0x3f2c2375	0.67241603
105	0x3ff10464	1.8829465
106	0xbf326a56	-0.69693506
107	0x3f031144	0.5119822
108	0x3e8c5b14	0.27413237
109	0x3f86c39c	1.0528445
110	0x4030f7a3	2.7651145
111	0x406a5677	3.6615274
112	0x400b5b4c	2.1774473
113	0x40030740	2.0473175
114	0x4075dd37	3.841627
115	0xbfcd1edd	-1.6025044
116	0xbf96962e	-1.1764581
117	0x4058ac4d	3.3855164
118	0x3e4b9b57	0.19883476
119	0x401b42c7	2.4259508
120	0x3e5367db	0.20645086
121	0x3df9d312	0.121984616
122	0x3e88c820	0.26715183
123	0x3f81b2f4	1.0132737
124	0x4044349c	3.065711
125	0x3f50be3e	0.81540287
126	0x3f4a4ee2	0.79026616
127	0xbfebfeae	-1.8437097

weight f4 [65, 32]
0	0xbeda29e1	-0.42610076
1	0xc02e9d6d	-2.7283585
2	0xc09d779a	-4.92085
3	0xc0e8c6aa	-7.274251
4	0xc0227051	-2.5381052
5	0xc0c8746a	-6.2642107
6	0x4062aaa0	3.5416641
7	0x3f1fb4e0	0.6238537
8	0x3dfeb285	0.12436394
9	0xc086924a	-4.2053576
10	0xc02fce95	-2.7469838
11	0x409b9591	4.8620076
12	0x409f1cce	4.972266
13	0xc0e29f01	-7.0819097
14	0xbfa07fcd	-1.2539002
15	0xbfc751fd	-1.5571896
16	0xbdaf9be2	-0.08574654
17	0xbf541bc3	-0.8285486
18	0xbe24feca	-0.1611282
19	0x4121e86d	10.119245
20	0xc0f66666	-7.7
21	0xc03ea0a0	-2.9785538
22	0xc16e0dbd	-14.878354
23	0x408efc2c	4.4682827
24	0x40894b49	4.29044
25	0xc05c925f	-3.4464338
26	0x40be2d6b	5.943044
27	0x4048b288	3.1358967
28	0xc0c2217d	-6.066588
29	0xc13901b0	-11.562912
30	0x3fcdad53	1.6068519
31	0x419fc4d8	19.971115
32	0xbe4761df	-0.19470929
33	0xc0208401	-2.5080569
34	0xc0977922	-4.7335367
35	0xc0b2bd4e	-5.5856085
36	0xc02189e4	-2.5240412
37	0xc0b79595	-5.7370095
38	0x40551d48	3.3299122
39	0x3e9b46ee	0.30327553
40	0x3f03f8cc	0.5155151
41	0xc086e44b	-4.215368
42	0xc0279940	-2.6187286
43	0x409c4a43	4.884065
44	0x40b51fda	5.660138
45	0xc0bfaf9c	-5.9901867
46	0xbf281e29	-0.6567102
47	0xbf41a2e9	-0.75639206
48	0x3f2fb3f4	0.6863396
49	0xbf6322d6	-0.8872503
50	0xbf53ef4d	-0.8278702
51	0x411c7516	9.778585
52	0xc10278d1	-8.154496
53	0xbfd68b75	-1.6761309
54	0xc1554b92	-13.33095
55	0x4085f8b3	4.186609
56	0x4070892d	3.7583725
57	0xc06dc33c	-3.7150412
58	0x40b97dd2	5.796609
59	0x40437897	3.0542352
60	0xc0981ba6	-4.753375
61	0xc12ab489	-10.669076
62	0x3fbf10ef	1.4927043
63	0x419dae8b	19.710226
64	0xbf14dce1	-0.58149534
65	0xc0206aa6	-2.5065093
66	0xc08e60b0	-4.4493027
67	0xc0bb297a	-5.848813
68	0xc0356d0c	-2.8347807
69	0xc0b65dac	-5.6989346
70	0x403a20d1	2.908253
71	0xbe00c29a	-0.12574235
72	0x3ed7aaaf	0.4212241
73	0xc07d42c8	-3.957201
74	0xc0364d4f	-2.8484685
75	0x409c4c37	4.8843036
76	0x40a4948e	5.143134
77	0xc0be0c2d	-5.9389863
78	0xbf1a567b	-0.6028821
79	0xbec450d6	-0.38342923
80	0x3ec373b1	0.38174203
81	0xbf6687cf	-0.9005098
82	0xbe41c681	-0.1892338
83	0x4116b515	9.4192095
84	0xc0fa8986	-7.8292875
85	0xbfd73d4e	-1.6815584
86	0xc142048f	-12.126113
87	0x408316ec	4.096548
88	0x406a3fbb	3.6601398
89	0xc06f10a0	-3.7353897
90	0x40a208ec	5.063589
91	0x40340abc	2.8131552
92	0xc091828b	-4.5471854
93	0xc12bf750	-10.747879
94	0x3f928ccf	1.1449221
95	0x4192eee6	18.36665
96	0xbda884a6	-0.08228426
97	0xc03b936c	-2.930873
98	0xc0990909	-4.782353
99	0xc0bd8129	-5.9220166
100	0xc0175414	-2.3645067
101	0xc0ba9e61	-5.8318334
102	0x407c90f9	3.9463484
103	0x3de78939	0.1130547
104	0x3f510122	0.81642354
105	0xc08c73db	-4.3891425
106	0xc01f3c53	-2.488057
107	0x40a1357b	5.0377784
108	0x40b3ca66	5.618457
109	0xc0d501c1	-6.656464
110	0xbf33f62d	-0.7029751
111	0xbf7cd52a	-0.9876276
112	0x3e406824	0.18789726
113	0xbfbbd762	-1.4675105
114	0xbffcd1c4	-1.9751515
115	0x412893c3	10.536075
116	0xc102e4ce	-8.1808605
117	0xbfee934c	-1.8638701
118	0xc168fd1b	-14.561793
119	0x40869acc	4.206396
120	0x40819ae9	4.05016
121	0xc072940b	-3.7902858
122	0x40ba43af	5.820762
123	0x404f0b0b	3.235049
124	0xc0a35b58	-5.1049004
125	0xc1359ae7	-11.350318
126	0x3fbc85a7	1.4728287
127	0x41a4f09a	20.617481
128	0x3d7cbca0	0.061703324
129	0xc001c07a	-2.0273728
130	0xc09e4426	-4.945819
131	0xc0cfcac7	-6.493503
132	0xbf66477e	-0.8995284
133	0xc0d7a20d	-6.7385316
134	0x409958eb	4.7921042
135	0x3f7015df	0.9378337
136	0x3f995234	1.1978211
137	0xc0705d2f	-3.7556875
138	0xc0427729	-3.038523
139	0x40b9c4d3	5.8052764
140	0x40b807db	5.750959
141	0xc0993f2e	-4.7889624
142	0xbde7a5c2	-0.11310913
143	0xbfbd2366	-1.4776428
144	0xbf24b4e5	-0.64338523
145	0xc03ad105	-2.9190075
146	0xc05ad8f5	-3.419492
147	0x411b0be2	9.690401
148	0xc0e9042b	-7.281759
149	0xc03e0f22	-2.9696736
150	0xc1730f23	-15.1911955
151	0x409eea57	4.966106
152	0x4096e6cc	4.7156734
153	0xc0a1d62b	-5.0573936
154	0x40cc2138	6.379055
155	0x40433173	3.0498931
156	0xc0bc1761	-5.877854
157	0xc1492386	-12.571173
158	0x3fb18837	1.3869694
159	0x41a1958e	20.198025
160	0xbf3e8a82	-0.74430096
161	0xc055d21c	-3.340949
162	0xc0941c0d	-4.628424
163	0xc0e0b5d2	-7.022195
164	0xc013b69a	-2.30802
165	0xc0cf8137	-6.4845233
166	0x403ea589	2.9788535
167	0x3ece65b3	0.40311965
168	0x3d336d6a	0.043805517
169	0xc093db37	-4.6205096
170	0xc03607a4	-2.8442163
171	0x408d7c22	4.421403
172	0x40b7e4d4	5.746683
173	0xc0bb565b	-5.8542914
174	0xbf9ee4ad	-1.2413536
175	0xc0052eb6	-2.080976
176	0x3fbb3509	1.462556
177	0xbe04358b	-0.1291105
178	0x3d1e0c54	0.038585976
179	0x412e79ab	10.904704
180	0xc106bc13	-8.420917
181	0xbf9c4962	-1.2209895
182	0xc14ef613	-12.935077
183	0x4085b42b	4.178243
184	0x407fa11f	3.994209
185	0xc07b8e22	-3.93055
186	0x40acad85	5.3961816
187	0x403cc7f9	2.9497054
188	0xc0808cca	-4.017186
189	0xc129c317	-10.610129
190	0x3fa61ee2	1.2978175
191	0x4199476d	19.159876
192	0xbf1331e7	-0.5749802
193	0xc04551de	-3.0831218
194	0xc08ff9e3	-4.4992537
195	0xc0d03f11	-6.5076985
196	0xc02f4316	-2.7384696
197	0xc0c05bb5	-6.0111947
198	0x406261db	3.5372226
199	0x3ed8f8e6	0.42377394
200	0x3eae7ab6	0.34077996
201	0xc093779f	-4.608352
202	0xc0223525	-2.5344937
203	0x40a1e562	5.059251
204	0x40aed876	5.4639235
205	0xc0dd5adb	-6.9173408
206	0xbf9c54c4	-1.2213368
207	0xc00a7ee2	-2.1639943
208	0x3ec7c404	0.39016736
209	0xbf9976e0	-1.1989403
210	0xbfb15e74	-1.385695
211	0x412d16a0	10.818024
212	0xc103c9ac	-8.236736
213	0xc0239354	-2.5558672
214	0xc16799f6	-14.475088
215	0x4084ddd6	4.1520796
216	0x40927998	4.577343
217	0xc07d373c	-3.9564962
218	0x40b9853a	5.797513
219	0x40458ac9	3.0865958
220	0xc0a8c3a2	-5.273881
221	0xc12b6a92	-10.713518
222	0x3febdb39	1.8426276
223	0x41a54ce3	20.662542
224	0xbf31c3d5	-0.6943944
225	0xbfd1dc63	-1.6395382
226	0xc0690b00	-3.6412964
227	0xc0ca13eb	-6.3149314
228	0xbf31d12a	-0.69459784
229	0xc0a0af02	-5.0213633
230	0x402b82cb	2.679858
231	0xbf0782a7	-0.52933735
232	0x3eb3a6fa	0.3508833
233	0xc000bb7a	-2.0114427
234	0xc05a8d42	-3.4148717
235	0x3fa62b93	1.2982048
236	0x4013b20f	2.3077428
237	0xc0a92eec	-5.286978
238	0xbf2bf99e	-0.6717776
239	0xbf824649	-1.0177699
240	0xbf6631b5	-0.89919597
241	0xc00e8ffd	-2.2275383
242	0x401d64f5	2.459287
243	0x40a3e321	5.1214757
244	0xc0a20e58	-5.064251
245	0x3dc8d3b1	0.09806002
246	0xc1098808	-8.595711
247	0x402ec048	2.730486
248	0x4036f97b	2.858977
249	0xbfeb94dd	-1.8404804
250	0x405b16c4	3.4232645
251	0x403449f9	2.817015
252	0xc07b67f1	-3.928219
253	0xc0fbbf5b	-7.867109
254	0x3ff01562	1.8756526
255	0x40b2c241	5.5862126

bias f4 [65]
0	0xc16d12e8	-14.817116
1	0xc145f47a	-12.372187
2	0xc1414cbf	-12.081237
3	0xc15a20b4	-13.632984
4	0xc1841456	-16.50993
5	0xc1abd44f	-21.478666
6	0xc18a13c1	-17.259645
7	0xc2058acc	-33.385544
8	0xc1f951b5	-31.164896
9	0xc20871a3	-34.110973
10	0xc155798a	-13.342173
11	0xc15b7a2f	-13.71733
12	0xc14c2991	-12.760148
13	0xc148e7ec	-12.556622
14	0xc15b0c6f	-13.690536
15	0xc1515bbb	-13.084895
16	0xc166d04b	-14.425853
17	0xc15fbafe	-13.983152
18	0xc159ee23	-13.620639
19	0xc188d42e	-17.103603
20	0xc159d8ab	-13.615397
21	0xc156d342	-13.426577
22	0xc1546f44	-13.277164
23	0xc1553da5	-13.32755
24	0xc1680903	-14.5022
25	0xc15038a2	-13.013826
26	0xc1933ee5	-18.40571
27	0xc15759da	-13.459436
28	0xc14bc399	-12.735253
29	0xc148917c	-12.535519
30	0xc1663572	-14.388048
31	0xc15d2f4f	-13.82405
32	0xc152cd16	-13.17507
33	0xc1457988	-12.342171
34	0xc1628282	-14.156862
35	0xc18afd7b	-17.37377
36	0xc12251ee	-10.145002
37	0xc12bd71d	-10.740018
38	0xc131d5b1	-11.114671
39	0xc12824d6	-10.508993
40	0xc12d5eb2	-10.835619
41	0xc1389c60	-11.5381775
42	0xc130577a	-11.021357
43	0xc136928a	-11.410776
44	0xc14ff534	-12.997364
45	0xc136d97c	-11.428097
46	0xc15180ec	-13.093975
47	0xc1500d9e	-13.0033245
48	0xc12e05ea	-10.876444
49	0xc12e8059	-10.906335
50	0xc127b35f	-10.481292
51	0xc1383257	-11.51229
52	0xc12807b7	-10.5018835
53	0xc15b7f1e	-13.718534
54	0xc13823b5	-11.508718
55	0xc12d9ed2	-10.8512745
56	0xc12e2028	-10.882851
57	0xc1400509	-12.001229
58	0xc12ceffb	-10.808589
59	0xc13d1661	-11.817964
60	0xc140404d	-12.015698
61	0xc1469b8c	-12.412975
62	0xc15ff685	-13.997685
63	0xc12a34d7	-10.6379
64	0xc20a70a5	-34.610004
